/home/aj17/github_aza/FusionAIHub
===================================================================================================================
Layer (type:depth-idx)                   Input Shape               Output Shape              Param #
===================================================================================================================
VideoBaselineAutoEncoder                 [1, 2, 25, 128, 128]      [1, 2, 25, 128, 128]      --
├─VideoBaselineEncoder: 1-1              [1, 2, 25, 128, 128]      [1, 50, 512]              --
│    └─Conv3d: 2-1                       [1, 2, 25, 128, 128]      [1, 32, 25, 64, 64]       1,760
│    └─Conv3d: 2-2                       [1, 32, 25, 64, 64]       [1, 64, 13, 32, 32]       55,360
│    └─Conv3d: 2-3                       [1, 64, 13, 32, 32]       [1, 128, 7, 16, 16]       221,312
│    └─Conv3d: 2-4                       [1, 128, 7, 16, 16]       [1, 128, 4, 8, 8]         442,496
│    └─AdaptiveAvgPool3d: 2-5            [1, 128, 4, 8, 8]         [1, 128, 2, 5, 5]         --
│    └─Conv3d: 2-6                       [1, 128, 2, 5, 5]         [1, 512, 2, 5, 5]         66,048
├─VideoBaselineDecoder: 1-2              [1, 50, 512]              [1, 2, 25, 128, 128]      --
│    └─Conv3d: 2-7                       [1, 512, 2, 5, 5]         [1, 128, 2, 5, 5]         65,664
│    └─Conv3d: 2-8                       [1, 128, 6, 16, 16]       [1, 128, 6, 16, 16]       442,496
│    └─Conv3d: 2-9                       [1, 128, 12, 32, 32]      [1, 64, 12, 32, 32]       221,248
│    └─Conv3d: 2-10                      [1, 64, 25, 64, 64]       [1, 32, 25, 64, 64]       55,328
│    └─Conv3d: 2-11                      [1, 32, 25, 128, 128]     [1, 2, 25, 128, 128]      1,730
===================================================================================================================
Total params: 1,573,442
Trainable params: 1,573,442
Non-trainable params: 0
Total mult-adds (Units.GIGABYTES): 11.21
===================================================================================================================
Input size (MB): 3.28
Forward/backward pass size (MB): 76.02
…
